assets/model/model.tflite (tflite, 149696 bytes, 10 tensors)

arith.constant f4 [128]
0	0xbc27d43e	-0.010243474
1	0x3c7582c3	0.014984789
2	0xbba8d8da	-0.005152804
3	0xbc0ef467	-0.008725262
4	0x3c1736a9	0.009229341
5	0x3b029482	0.0019924943
6	0x00000000	0.0
7	0x3c9862af	0.018601744
8	0x3c1c5e2f	0.0095439395
9	0x3c901f1b	0.017592957
10	0xbba3a7e3	-0.004994379
11	0x3b1adc97	0.0023630017
12	0x3cf02a55	0.02931706
13	0x3c785df6	0.015159121
14	0xbc275ff1	-0.010215745
15	0x00000000	0.0
16	0xbbde078d	-0.0067758025
17	0x00000000	0.0
18	0x3ccc7b7e	0.02496123
19	0xbb6a1dde	-0.0035723369
20	0x3c7d1eac	0.015449207
21	0x00000000	0.0
22	0x3ab07b32	0.001346445
23	0x3aab7070	0.0013079774
24	0x3bcb09b5	0.0061962255
25	0x3c704800	0.014665604
26	0xbc850f58	-0.016242668
27	0x00000000	0.0
28	0x3c850989	0.016239898
29	0x00000000	0.0
30	0x3cc200b9	0.023681985
31	0x00000000	0.0
32	0xbc01997f	-0.0079101315
33	0x3bd8e551	0.0066191335
34	0xbc814e2e	-0.01578435
35	0xbbe2e408	-0.006924156
36	0x00000000	0.0
37	0x3c45455e	0.012040464
38	0x3ade8062	0.0016975517
39	0xb9f02711	-0.00045805474
40	0xbb3a84a6	-0.0028460412
41	0xbc235526	-0.009969031
42	0x00000000	0.0
43	0xbc1fde3f	-0.009757577
44	0x00000000	0.0
45	0x00000000	0.0
46	0xbbbb345e	-0.0057130298
47	0xbc22a78e	-0.009927643
48	0x3af12f3c	0.0018400918
49	0x3cea4fb0	0.028602451
50	0x00000000	0.0
51	0xbc2644d4	-0.010148246
52	0x00000000	0.0
53	0x39e62775	0.00043898416
54	0xbb98bada	-0.0046609463
55	0x3caa5f6d	0.020797456
56	0xbc88b389	-0.016687172
57	0x38c2acd8	9.2828355e-05
58	0x3c64eab3	0.013971972
59	0x00000000	0.0
60	0xbc0f55c9	-0.00874848
61	0x00000000	0.0
62	0xbc0bf333	-0.00854187
63	0x00000000	0.0
64	0x3a93f91e	0.0011289453
65	0xbc8a403f	-0.016876338
66	0xbc74e330	-0.014946744
67	0x00000000	0.0
68	0xb974db16	-0.00023351269
69	0xbc8fd677	-0.01755832
70	0x00000000	0.0
71	0x3c87fec6	0.016600978
72	0xbbbc7cb0	-0.0057521686
73	0x3ca46785	0.020068893
74	0x00000000	0.0
75	0x3c7c459b	0.015397455
76	0x3c056be4	0.008143399
77	0x00000000	0.0
78	0xbcaacc75	-0.020849446
79	0xbc8074fc	-0.015680782
80	0xbc8f600f	-0.017501859
81	0xba2d6ba1	-0.0006615464
82	0xbb612b6a	-0.0034358152
83	0xbbc1016c	-0.005890062
84	0x00000000	0.0
85	0xbc01c43b	-0.00792032
86	0x3ca54e3f	0.020178912
87	0xbbe7c2d0	-0.007072784
88	0x3c8e249e	0.017351445
89	0xbbab5cc8	-0.0052295662
90	0x3c174ca7	0.009234584
91	0xbc5cb520	-0.013470918
92	0xbc664bff	-0.014056205
93	0x3c593dad	0.013259334
94	0x00000000	0.0
95	0x3cb1d32a	0.021707136
96	0x3cab8c1b	0.02094083
97	0x3b7e939a	0.0038845302
98	0x3b936869	0.0044985306
99	0x00000000	0.0
100	0x3c506c2c	0.012721103
101	0x3bcd6358	0.006267946
102	0x3c7803a1	0.015137584
103	0x3ccc3199	0.024925994
104	0x00000000	0.0
105	0x3b949e96	0.0045355065
106	0xbbeccbde	-0.0072264513
107	0x3b822ed3	0.003972867
108	0xbbf840d3	-0.007576087
109	0x3c3272cd	0.010891628
110	0xbbbd4556	-0.0057760878
111	0x3c01f996	0.007933041
112	0xbc206c75	-0.009791483
113	0x3c70bd16	0.014693519
114	0x00000000	0.0
115	0xbc81bc05	-0.015836725
116	0xbb9c8a70	-0.004777245
117	0x3cc5a582	0.024126772
118	0xbc49a498	-0.012307309
119	0xbb9415c7	-0.0045191976
120	0x00000000	0.0
121	0xbb8ddb56	-0.0043291254
122	0x3c53da23	0.012930426
123	0xbc3abeb1	-0.011398003
124	0x3a8880b3	0.0010414332
125	0x390a3f56	0.000131843
126	0xbc91fd9f	-0.017821131
127	0xbc10e3a3	-0.008843335

arith.constant1 f4 [32]
0	0xbbc198bf	-0.0059081013
1	0x3bbb273d	0.0057114647
2	0x3c2ff409	0.010739335
3	0x3d04b46c	0.032398626
4	0x3bce2f9e	0.0062922975
5	0x3caa74d3	0.02080766
6	0xbbc48569	-0.005997349
7	0xbb4e9668	-0.0031522755
8	0xbca8898a	-0.020573396
9	0x3bfe222d	0.007755539
10	0x3ca63575	0.020289162
11	0xbbf2ec58	-0.0074134283
12	0x3c5df124	0.013546262
13	0x3cf8eb3d	0.030385608
14	0xbcb3f2e5	-0.021966407
15	0xbce23c95	-0.027616778
16	0x3cb1e01d	0.02171331
17	0xbc3d8837	-0.011568121
18	0x3c93a83c	0.018024556
19	0x3b732696	0.0037101856
20	0x3cd4fd55	0.025999704
21	0xbbaa4e91	-0.005197354
22	0xbbf113ee	-0.007357112
23	0xbc1a99e1	-0.009436102
24	0x3c8cc30b	0.017182847
25	0xbc460042	-0.012085022
26	0xbcaaf60b	-0.020869276
27	0x00000000	0.0
28	0x3b857893	0.0040732115
29	0xbc28f8bc	-0.010313209
30	0x3c75e675	0.0150085585
31	0xbc34ca92	-0.011034625

arith.constant2 f4 [32]
0	0x3c94265c	0.018084697
1	0xbc1886fb	-0.009309526
2	0xbcdeedfc	-0.02721309
3	0xbbaa4466	-0.005196142
4	0xbd2517a9	-0.040305767
5	0xbbab23bb	-0.0052227653
6	0xbcb293b7	-0.021798952
7	0xbd33d2be	-0.04390215
8	0x3cc29bbe	0.023755904
9	0xbd338a1f	-0.043832894
10	0xbc1a69e6	-0.009424662
11	0xbb64d2da	-0.0034915716
12	0xbbcbcf31	-0.0062197675
13	0x3c45aa5c	0.012064543
14	0xbc01e668	-0.007928468
15	0x3cc36bb9	0.023855077
16	0xbc2c9d37	-0.01053553
17	0x3ccfa8bb	0.025349012
18	0xbc9552c2	-0.018227939
19	0x3d2a9335	0.041644294
20	0xbc1bdf35	-0.009513666
21	0x3c9e840b	0.019350072
22	0xbd292de2	-0.041303523
23	0x3b99e99a	0.004697037
24	0x3cee08ae	0.029056873
25	0xbc0e815d	-0.008697835
26	0xba73b4a3	-0.00092966313
27	0xbb9c9611	-0.0047786315
28	0x3c99d051	0.01877609
29	0xbcda3d9c	-0.026640706
30	0xbd5db1e5	-0.05412473
31	0x3caa99c9	0.020825284

arith.constant3 f4 [32]
0	0xbd5e948b	-0.05434088
1	0xbce13631	-0.02749166
2	0x00000000	0.0
3	0xbcb0ac6e	-0.021566596
4	0xbbee6d4e	-0.0072762137
5	0x3c41847f	0.011811375
6	0xbb812412	-0.0039410675
7	0x3d3261a7	0.04355016
8	0x3c9765cb	0.018481156
9	0x3c9d2bff	0.019186018
10	0xbba6a5d3	-0.0050856858
11	0x3af3ed3e	0.0018610132
12	0x00000000	0.0
13	0xbcbfd240	-0.023415685
14	0xbc7ca045	-0.015419071
15	0xbd0c1757	-0.034201946
16	0xbb53baa7	-0.0032307298
17	0x3ca1d906	0.019756805
18	0x00000000	0.0
19	0xbc77823f	-0.015106737
20	0xbcdbad52	-0.026816044
21	0x3c587edb	0.013213838
22	0xbd23806e	-0.039917402
23	0xbc5fd973	-0.013662684
24	0xbcdcedd9	-0.026968883
25	0xbd4841bb	-0.04889081
26	0xbceecbf0	-0.02914998
27	0x3bbcdfbb	0.0057639754
28	0xbc984dc7	-0.018591775
29	0xbcc0482c	-0.023471914
30	0xbc3f505c	-0.011676874
31	0xbae68340	-0.0017586723

arith.constant4 f4 [3]
0	0xbac98012	-0.0015373251
1	0xbc40fe6f	-0.011779412
2	0x3c8434cf	0.016138462

arith.constant5 f4 [32, 3, 3, 32]
0	0x3db8a91b	0.09016629
1	0xbd933f50	-0.0718981
2	0x3d6d2b2c	0.0579025
3	0xbda17b29	-0.07884819
4	0xbd661cc0	-0.056179762
5	0x3d17c2bb	0.037050944
6	0xbd97cd43	-0.074121974
7	0xbd8f6411	-0.07001508
8	0xbd1f72d8	-0.038927883
9	0x3c970f2d	0.018439854
10	0x3db3f8da	0.08787699
11	0xbbf4aa6b	-0.0074666045
12	0x3d3069d0	0.04306966
13	0xbcec75b6	-0.028864723
14	0x3da4dca8	0.08049899
15	0xbc92e128	-0.017929628
16	0xbdaad9a6	-0.083422944
17	0xbd6d663f	-0.057958838
18	0xbcaa4a3c	-0.02078735
19	0x3c4b73b8	0.012417726
20	0x3d90eb47	0.070761256
21	0xbda2b305	-0.079443015
22	0x3d973406	0.073829696
23	0xbb7d6a60	-0.003866814
24	0x3d09ff2f	0.033690628
25	0xbdc591d8	-0.09646958
26	0xbcfa47d0	-0.030551821
27	0xbd390588	-0.04517129
28	0xbdb0fa64	-0.08641508
29	0xbcdd953d	-0.027048701
30	0x3c294fd2	0.010333972
31	0x3d8e8467	0.069588475
32	0xbb390df1	-0.002823707
33	0xbd59e437	-0.05319616
34	0x3c4bfb58	0.012450062
35	0x3d0c7674	0.034292653
36	0xbd9524a8	-0.07282382
37	0xbda0b2b5	-0.07846586
38	0xbb288251	-0.002571244
39	0x3c3a95f2	0.011388289
40	0x3cb18f1c	0.021674685
41	0xbd7c47d2	-0.06159193
42	0xbd34eed5	-0.04417308
43	0xbcf9daed	-0.0304999
44	0xbd4e2e4c	-0.05033712
45	0xbdd8688e	-0.10566817
46	0x3d9f4946	0.07777648
47	0x3d850895	0.064957775
48	0xbd80dadf	-0.06291746
49	0x3d698e8c	0.05702071
50	0xbdb826ad	-0.08991752
51	0xbd3317ff	-0.043724056
52	0xbdd36107	-0.10321241
53	0x3daf0022	0.08544947
54	0xbd813046	-0.063080356
55	0xbdc13d14	-0.09435478
56	0xbd1d448f	-0.03839546
57	0x3db9a67c	0.090649575
58	0x3db3d69c	0.08781168
59	0x3d26239c	0.040561303
60	0x3d240c38	0.040050715
61	0xbd00c5b8	-0.03143856
62	0x3dc01a82	0.09380056
63	0x3cef239e	0.029191788
64	0xbd63fb13	-0.055659365
65	0x3c50abd0	0.012736276
66	0x3ccb6520	0.024828494
67	0x3d349bc0	0.044093847
68	0x3da4b666	0.08042602
69	0x3ba21421	0.004946247
70	0xbd0f17b6	-0.034934722
71	0xbdda5bcf	-0.10662042
72	0x3daed650	0.085369706
73	0xbd7e2655	-0.062048275
74	0x3dc7496c	0.09730801
75	0xbdc534fc	-0.096292466
76	0xbdc7e400	-0.097602844
77	0x3c6d8ec4	0.01449937
78	0xbd01b78e	-0.031669192
79	0xbdae7a85	-0.085194625
80	0xbdba91ad	-0.09109817
81	0x3bff32cd	0.0077880383
82	0x3d9cdd8a	0.07659443
83	0x3d9c5273	0.076329134
84	0x3c8dda43	0.01731599
85	0xbd41276d	-0.04715674
86	0x3d65ba08	0.056085616
87	0x3d663e0e	0.056211524
88	0xbdbe65bb	-0.09296747
89	0x3dbb36b8	0.09141296
90	0x3d85215c	0.065005034
91	0x3d5a4178	0.053285092
92	0x3dcfca52	0.101460114
93	0x3db572b9	0.08859772
94	0x3d8c2f88	0.06845003
95	0xbdc6681a	-0.096878245
96	0x3d4404d0	0.047856152
97	0x3dbb40b2	0.09143199
98	0x3bec4d00	0.0072113276
99	0x3cf73ce0	0.030180395
100	0xbdb41cd1	-0.08794559
101	0xbdcba634	-0.0994381
102	0x3dbcf800	0.0922699
103	0xbc1a1b5a	-0.009405935
104	0xbddcca6c	-0.107807964
105	0xbd8ec385	-0.06970886
106	0xbd3617b5	-0.044456203
107	0x3a7289ef	0.0009252121
108	0x3d4078f0	0.046990335
109	0x3d408a97	0.04700717
110	0x3ab98600	0.0014154315
111	0x3dae22f9	0.08502764
112	0xbd57da19	-0.05269823
113	0xbdd83515	-0.105569996
114	0x3dafbe74	0.08581248
115	0x3ca6b3e0	0.020349443
116	0xbdd807d2	-0.105483666
117	0x3d30e34b	0.043185513
118	0xbd42c168	-0.047547728
119	0x3dbbf5d4	0.09177747
120	0xbbf5656b	-0.0074888966
121	0xbd0068c4	-0.031349912
122	0xbd598ed2	-0.05311472
123	0x3d245f14	0.040129736
124	0x3d83fd38	0.06444782
125	0x3db4240d	0.08795939
126	0x3d8bbd2e	0.068231925
127	0xbd31470d	-0.04328065
128	0x3ab2c61d	0.0013639365
129	0xbcb140b4	-0.021637298
130	0xbd12c380	-0.035830975
131	0xbbf8dcc0	-0.007594675
132	0xbd7d1edc	-0.061797008
133	0xbc3b3b0a	-0.01142765
134	0xbbc40987	-0.005982581
135	0xbc087441	-0.008328498
136	0xbd7fd630	-0.062460124
137	0xbb9e9081	-0.0048390036
138	0xbdb043cd	-0.08606682
139	0xbd2de52d	-0.042454887
140	0x3db821f4	0.08990851
141	0xbd135707	-0.035971668
142	0xbd973c2a	-0.07384522
143	0xbdbd2b6e	-0.09236799
144	0xbd148567	-0.036260035
145	0xbdba69aa	-0.09102185
146	0x3d3c14fc	0.04591845
147	0x3d4b0454	0.049564674
148	0xbdb5d4ef	-0.088785045
149	0x3cc3dc8d	0.023908878
150	0x3d9060be	0.07049702
151	0xbdccd5b9	-0.10001702
152	0xbd29e26e	-0.041475706
153	0xbd5476d8	-0.05187115
154	0xba831d40	-0.0010003224
155	0xbbb1c3a0	-0.0054249316
156	0x3bfa3f20	0.0076369196
157	0x379dcdbf	1.8811666e-05
158	0x3d1491de	0.036271922
159	0x3d857d9d	0.065180995
160	0x3c0ad118	0.008472703
161	0x3d8b9038	0.06814617
162	0x3d99e311	0.075140126
163	0xbda2cdba	-0.079493955
164	0x3d274640	0.04083848
165	0x3ce85a9a	0.028363515
166	0x3d3c6097	0.045990553
167	0xbcdd44e8	-0.027010396
168	0xbd6be28f	-0.05758911
169	0x3cdda473	0.027055955
170	0xbdaf451b	-0.08558103
171	0xbbfb92cf	-0.007677413
172	0xbdbdccc8	-0.092675745
173	0x3d6d31a7	0.05790868
174	0x3dca2a06	0.098712966
175	0xbb3b3c28	-0.0028569791
176	0x3db3fe30	0.08788717
177	0xbb704cc8	-0.003666686
178	0xbd8736c6	-0.06602244
179	0xbdd12f95	-0.10214154
180	0x3c6cd877	0.014455906
181	0x3db45df5	0.088069834
182	0xbd9e90af	-0.0774244
183	0x3dbec981	0.093157776
184	0xbdbce1af	-0.09222733
185	0x3d534228	0.051576763
186	0xbdbf029b	-0.09326669
187	0x3d80ec42	0.062950626
188	0xbcc5ab40	-0.02412951
189	0x3db017da	0.08598299
190	0x3d497c1c	0.049190626
191	0x3c018410	0.007905021
192	0xbd1b614f	-0.037934598
193	0xbd69388e	-0.0569387
194	0xbd6cde25	-0.05782904
195	0x3d3caaa8	0.046061188
196	0x3ca959d9	0.020672726
197	0xbd0cf694	-0.034414843
198	0x3b6fc455	0.003658553
199	0xbdc7281e	-0.097244486
200	0xbd53f20a	-0.0517445
201	0x3dbf6abf	0.09346532
202	0x3cb5d6ec	0.02219721
203	0x3d82fe70	0.06396186
204	0xbd836d60	-0.06417346
205	0x3ce08669	0.027407842
206	0x3c9e6464	0.01933498
207	0xbdc9a7b6	-0.098464414
208	0x3d2c945c	0.042133674
209	0xbdd3ecc2	-0.10347892
210	0x3d384618	0.04498872
211	0x3d10a914	0.035317495
212	0x3d36dc61	0.044643763
213	0x3d0c07d2	0.034187146
214	0xbd0163f7	-0.031589475
215	0x3bdd02eb	0.0067447326
216	0x3cb3bd33	0.021940803
217	0xbd355b81	-0.044276718
218	0x3d69e0a0	0.057098985
219	0xbb86e6c0	-0.004116863
220	0x3c8eb7e0	0.017421663
221	0xbb53664c	-0.0032257019
222	0xbda9988f	-0.08281051
223	0xbd8cf551	-0.06882728
224	0xbdb44875	-0.088028826
225	0xbd584d6c	-0.05280821
226	0x3cc54259	0.024079489
227	0x3d9ab3da	0.07553835
228	0xbd99a46b	-0.07502063
229	0x3daa0026	0.083008096
230	0xbc4f2b55	-0.0126446085
231	0xbdd47d77	-0.10375493
232	0xbd410667	-0.047125246
233	0xbd7e0c75	-0.0620236
234	0x3db2ce00	0.08730698
235	0x3da07f93	0.07836833
236	0xbcfa97f0	-0.030590028
237	0x3d17df29	0.037078056
238	0xbc3ad91b	-0.011404301
239	0x3d243078	0.040085286
240	0xbd77ae20	-0.060468793
241	0x3cd49d72	0.025953982
242	0xbdc8581f	-0.09782433
243	0x3d712edf	0.05888259
244	0x3dc0c754	0.09413019
245	0xbb8443f7	-0.0040364224
246	0xbbdccde0	-0.0067384094
247	0x3cd15a88	0.025555864
248	0x3d17d9e2	0.037073024
249	0xbc002ae8	-0.00782273
250	0x3d1bc4a0	0.038029313
251	0xbdce09e9	-0.10060484
252	0xbd902b0d	-0.07039461
253	0x3c243ef5	0.010024776
254	0xbce4993f	-0.027905105
255	0xbd971d74	-0.073786646

arith.constant6 f4 [32, 3, 3, 32]
0	0x3c36e4f2	0.011162983
1	0xbd2a1e0e	-0.04153257
2	0xbdce1122	-0.100618616
3	0xbdce19ae	-0.10063492
4	0xbdc34052	-0.095337525
5	0x3dab85d3	0.08375134
6	0x3decf22f	0.1156963
7	0x3d9488b0	0.072526336
8	0xbd710220	-0.058839917
9	0x3df12f92	0.117766514
10	0xbd95bf79	-0.07311911
11	0xbd8cc6bd	-0.06873844
12	0x3c9d4798	0.019199178
13	0x3d6bcac2	0.05756641
14	0xbbffc5d5	-0.007805566
15	0xbd8b0e20	-0.067898035
16	0x3d46c42a	0.04852692
17	0xbc34950c	-0.011021864
18	0xbd850436	-0.06494944
19	0x3aebc40a	0.0017987501
20	0x3ce6ee0d	0.028189683
21	0x3ddd1921	0.107958086
22	0xbc8b7274	-0.017022349
23	0x3d461f9d	0.048369993
24	0x3d2e024e	0.042482667
25	0xbd8d9c1c	-0.06914541
26	0xbd8b7751	-0.06809867
27	0xbdc04188	-0.09387499
28	0xbb8d280e	-0.0043077534
29	0xbdbe8af8	-0.0930385
30	0x3cf19d22	0.029493872
31	0x3d97cf18	0.07412547
32	0x3dc46310	0.09589207
33	0xbd5ca15a	-0.053864814
34	0xbd2e8d6e	-0.042615347
35	0xbda414ac	-0.08011755
36	0x3db2f55e	0.08738206
37	0x3dad7efc	0.08471486
38	0xbd2091b4	-0.039201453
39	0x3c4fabce	0.012675239
40	0xbba6458b	-0.005074208
41	0x3dc48db3	0.095973395
42	0x3dc21284	0.09476188
43	0x3d28d0c4	0.04121472
44	0x3dc020da	0.09381266
45	0x3d69f630	0.05711955
46	0xbd250a94	-0.04029329
47	0x3c903991	0.017605575
48	0x3d785321	0.060626153
49	0x3d75f1e2	0.06004513
50	0xbd66a0d8	-0.056305736
51	0xbd455902	-0.048180588
52	0xbd3700b0	-0.04467839
53	0xbd85ef9c	-0.065398425
54	0x3d76eb39	0.06028292
55	0xbc486671	-0.012231455
56	0x3dac5cd4	0.08416143
57	0x3d932e5a	0.07186575
58	0xbca15d1f	-0.019697724
59	0xbc1721d6	-0.009224376
60	0xbcbccd2f	-0.023047058
61	0xbdc53a9c	-0.096303195
62	0x3bd1e3c0	0.0064053237
63	0x3d72f833	0.059318732
64	0x3da757d8	0.08171052
65	0x3d6378bc	0.055535063
66	0xbd6cdd94	-0.0578285
67	0xbb9d4f52	-0.0048007155
68	0x3ceee9ef	0.029164283
69	0x3d941e2a	0.07232316
70	0xbd87f56d	-0.06638608
71	0x3c7c8ce2	0.015414448
72	0x3cacf06b	0.021110734
73	0xbc8a852b	-0.016909203
74	0xbdb049dc	-0.086078376
75	0x3d8e8201	0.0695839
76	0x3cfb56d8	0.030681059
77	0xbce3327f	-0.02773404
78	0xbd656dc3	-0.05601288
79	0xbcb9ff06	-0.022704612
80	0x3da962c2	0.0827079
81	0xbd349d27	-0.044095185
82	0xbd0c9324	-0.03432001
83	0x3ccd40df	0.025055347
84	0xbcbb92a8	-0.02289708
85	0xbcb5502a	-0.022132952
86	0xbdb2a293	-0.08722415
87	0x3c3b2492	0.011422293
88	0x389ce022	7.480408e-05
89	0xbd6cfa2b	-0.057855766
90	0xbc0c2149	-0.008552858
91	0x3d77123f	0.060320135
92	0x3d8d3540	0.06894922
93	0xbd47dda5	-0.04879536
94	0xbd832bfe	-0.06404875
95	0x3d9d9e5a	0.07696219
96	0xbd80b630	-0.062847495
97	0xbddf6adf	-0.10909056
98	0x3d17752c	0.03697698
99	0xbd10aaf0	-0.03531927
100	0x3cef43e8	0.029207185
101	0x3d3f29d1	0.04667074
102	0x3d70cd77	0.058789697
103	0x3db3f5ce	0.08787118
104	0x3def631b	0.11688825
105	0x3de47829	0.11155731
106	0xbdb7721e	-0.08957313
107	0xbda45369	-0.08023722
108	0xbbe0ea50	-0.0068638697
109	0xbdf6c098	-0.12048453
110	0xbd0007fe	-0.031257622
111	0x3a21ee42	0.0006177166
112	0xbda6a4dc	-0.08136913
113	0xbe10274e	-0.14077494
114	0xbdbe8345	-0.093023814
115	0xbd6d2084	-0.057892337
116	0x3da4c36c	0.08045086
117	0x3e04e14c	0.12976569
118	0x3cf4aade	0.029866632
119	0x3d254d92	0.04035718
120	0xbd87ab68	-0.0662449
121	0xbd9c6818	-0.07637042
122	0xbda80935	-0.08204881
123	0xbdd92eca	-0.106046274
124	0xbbaf555d	-0.0053507523
125	0xbd5ee661	-0.054418925
126	0xbd620b9a	-0.055186845
127	0xbda4c122	-0.0804465
128	0x3d5ff287	0.05467465
129	0xbdbd1cc0	-0.09233999
130	0xbda38def	-0.07986056
131	0xbda80e5d	-0.082058646
132	0xbdacb20a	-0.08432396
133	0x3cd20b4f	0.025640158
134	0x3dc9c300	0.098516464
135	0x3d8be9c0	0.06831694
136	0x3bf3a8c9	0.0074358922
137	0x3dcf4019	0.101196475
138	0x3c318440	0.0108347535
139	0xbdb195e1	-0.08671165
140	0xbd98b6de	-0.07456754
141	0x3d2b1aef	0.041773733
142	0xbded9003	-0.11599734
143	0xbd801c34	-0.06255379
144	0x3c6e90eb	0.014560918
145	0xbd2bd51f	-0.041951295
146	0x3d97a1de	0.074039206
147	0x3d0d912c	0.034562275
148	0xbc209b17	-0.009802601
149	0x3e04adb9	0.12956895
150	0x3d82c54b	0.06385287
151	0x3dc9f8eb	0.098619305
152	0xbda59eab	-0.08086904
153	0xbced2d87	-0.028952373
154	0x3d19f802	0.037590034
155	0xbdc026c3	-0.09382393
156	0xbdf71b7f	-0.12065791
157	0x3a522d15	0.0008017582
158	0x3cf3a254	0.02974049
159	0x3d9ef324	0.07761219
160	0x3ce97c86	0.02850176
161	0xbdbc6729	-0.09199364
162	0xbd14a3b4	-0.036288932
163	0xbbfb8538	-0.007675793
164	0x3ceb7ca1	0.028745951
165	0xbd154a1f	-0.03644764
166	0xbd9f7db7	-0.0778765
167	0x3db3ea5c	0.08784935
168	0xbd447bf9	-0.047969792
169	0xbca66a45	-0.020314345
170	0xbd68365d	-0.05669247
171	0xbd7178df	-0.058953162
172	0xbc206ce0	-0.009791583
173	0x3ca58df7	0.020209296
174	0x3c8d868a	0.017276067
175	0x3cc06f9f	0.023490725
176	0x3cb69069	0.022285657
177	0x3d3efe9e	0.04662954
178	0xbd9111c6	-0.07083468
179	0x3d73c834	0.0595171
180	0xbca31f29	-0.01991232
181	0x3d955289	0.07291133
182	0xbda20fd4	-0.07913175
183	0x3dda96b9	0.10673279
184	0x3c42c9eb	0.011888961
185	0x3c321a78	0.010870568
186	0x3d4e77a9	0.050407086
187	0x3c25fda2	0.010131272
188	0x3dadcde3	0.084865354
189	0x3da0d2ca	0.07852705
190	0x3ce0868d	0.027407909
191	0xbdb9a740	-0.090651035
192	0x3d7988b0	0.06092137
193	0x3c8e959e	0.017405327
194	0x3da37bce	0.07982598
195	0x3d740f9b	0.059585195
196	0x3a9e0bc0	0.0012057945
197	0xbc8be6aa	-0.017077763
198	0xbc548632	-0.012971448
199	0x3dc41222	0.09573771
200	0xbb30898e	-0.0026937458
201	0x3df7f905	0.121080436
202	0x3dc9bfba	0.09851022
203	0x3da1f566	0.07908134
204	0x3daf53a0	0.08560872
205	0xbc7ed411	-0.01555349
206	0xbdeb1d05	-0.114801444
207	0xbb8ff992	-0.004393765
208	0xbd34613a	-0.044038035
209	0x3d8b774b	0.06809863
210	0xbda238ee	-0.07921015
211	0xbbdab07e	-0.0066738715
212	0x3ce8e7f1	0.02843091
213	0x3da81995	0.082080044
214	0x3d8da31b	0.069158755
215	0x3cc6ae74	0.024253108
216	0x3cccac00	0.02498436
217	0xbdc92c72	-0.098229304
218	0xbd11ab24	-0.035563603
219	0xbd115340	-0.035479784
220	0xbd3172b1	-0.04332227
221	0x3ce11a94	0.027478494
222	0xbd0286d3	-0.03186686
223	0x3a74a373	0.0009332217
224	0x3d72e99c	0.05930482
225	0xbde7527f	-0.11295032
226	0x3bb22b90	0.005437322
227	0x3d87d41a	0.06632252
228	0xbd656cf3	-0.056012105
229	0x3dd37502	0.10325052
230	0x3d834076	0.06408779
231	0xbd56c1ea	-0.052431025
232	0x3c18e4c4	0.009331886
233	0x3dd132ee	0.10214792
234	0x3d76e670	0.060278356
235	0x3c1a210f	0.009407296
236	0xbc9c2984	-0.019062765
237	0x3ad073fd	0.0015903708
238	0x3ca6dda4	0.020369358
239	0xbc6803e5	-0.014161085
240	0xbe09abf0	-0.13444495
241	0x3c1496cc	0.009069156
242	0x3d026664	0.03183593
243	0x3d89811b	0.06714078
244	0x3d160eca	0.036635198
245	0x3c3a6388	0.011376269
246	0x3d26aac3	0.040690195
247	0x3db20698	0.08692664
248	0x3da97160	0.08273578
249	0x3bd6b203	0.0065519824
250	0xbdbdd2ff	-0.0926876
251	0xbde757d7	-0.11296051
252	0x3c65a141	0.014015497
253	0xbda7eca1	-0.0819943
254	0x3cd64acc	0.026158713
255	0x3d512c9e	0.05106794

arith.constant7 f4 [3, 128]
0	0x3cffe1ca	0.031235594
1	0xbe38585e	-0.1800246
2	0x3e3c78de	0.18405482
3	0x3e0f4fba	0.13995257
4	0x3e25932a	0.1616942
5	0x3e52cf8a	0.20586982
6	0xbe2a1ebb	-0.16613285
7	0xbdb10c86	-0.08644967
8	0x3e2365e3	0.15956835
9	0xbc6c1556	-0.014409384
10	0xbe5d01f8	-0.21582782
11	0x3de2510a	0.11050613
12	0x3e0d69d5	0.13809903
13	0xbe235f76	-0.15954384
14	0x3da7fdbf	0.08202695
15	0xbdb89e5f	-0.09014582
16	0x3dd02f92	0.10165323
17	0x3e3d4a6b	0.1848542
18	0x3a9b2825	0.0011837526
19	0xbe1e99a0	-0.15488291
20	0xbe202d20	-0.15642214
21	0x3d5585e4	0.05212964
22	0xbe3a010f	-0.18164466
23	0xbc26443b	-0.010148103
24	0xbcf30f56	-0.029670399
25	0x3c8f03e2	0.017457906
26	0xbda3eec6	-0.08004527
27	0x3e427ba1	0.18992473
28	0xbcce0088	-0.025146738
29	0x3e14fbbd	0.14549156
30	0xbe054066	-0.13012847
31	0xbcb72588	-0.022356763
32	0x3ce6549e	0.02811652
33	0x3d81addf	0.063319914
34	0x3dedd974	0.116137415
35	0xbe6b209c	-0.22961658
36	0x3df10346	0.117682025
37	0x3e0c44cf	0.13698123
38	0x3e4a080f	0.19729637
39	0x3e86fb7e	0.26363748
40	0x3db56443	0.08857014
41	0xbd938efc	-0.072050065
42	0x3e2e5c59	0.17027415
43	0xbb901bac	-0.00439783
44	0x3df84a82	0.12123586
45	0x3e2eb871	0.17062546
46	0x3e15fe4e	0.14647791
47	0x3e17ae79	0.1481265
48	0xbe3d2dad	-0.18474455
49	0x3e3e8079	0.18603696
50	0x3e25a38d	0.16175671
51	0xbe3ccacb	-0.18436734
52	0xbd66868c	-0.056280658
53	0x3e4762d0	0.19471288
54	0x3d4acce4	0.049511805
55	0x3e236315	0.15955766
56	0xbcba87eb	-0.022769889
57	0x3e12031f	0.14259003
58	0x3df0a04b	0.117493235
59	0xbde0d84c	-0.10978755
60	0xbe01123c	-0.12604612
61	0x3db06f22	0.08614947
62	0x3dfc421a	0.12317295
63	0x3c0f1530	0.008733079
64	0x3c393c22	0.011305841
65	0xbd1f934a	-0.038958825
66	0xbdbda1e3	-0.09259393
67	0xbd4f9cd4	-0.050686672
68	0x3e7ea4ca	0.2486755
69	0xbd5a34f9	-0.053273175
70	0xbe0ffa7e	-0.14060399
71	0xbdab54dd	-0.08365796
72	0x3dadfc85	0.0849543
73	0x3e60ed3c	0.21965498
74	0xbe490a93	-0.1963294
75	0xbe2bb78a	-0.16769233
76	0x3e5ad0c3	0.21368699
77	0xbdefecbe	-0.11715077
78	0xbce932b2	-0.028466556
79	0xbcbd28f3	-0.023090815
80	0x3de1877f	0.11012172
81	0x3e105ba7	0.14097463
82	0xbe32a54f	-0.17445873
83	0xbd460b4c	-0.048350617
84	0x3cca9e88	0.024733797
85	0xbdb2a353	-0.08722558
86	0xbe4ae0fc	-0.19812387
87	0xbbf936fa	-0.0076054307
88	0xbe47a8a9	-0.19497932
89	0xbcab5e64	-0.020919032
90	0xbda223cf	-0.07916986
91	0x3e2235b1	0.15840794
92	0x3dc4fa0d	0.09618006
93	0x3e336be2	0.17521623
94	0x3e564397	0.20924221
95	0xbe1797db	-0.14804022
96	0x3e40736c	0.1879403
97	0xbe7445e0	-0.2385478
98	0x3e3c4835	0.1838692
99	0xbb9b4c60	-0.004739329
100	0xbe02eaac	-0.12784833
101	0xbe3bff06	-0.18359002
102	0xbdc32dee	-0.09530245
103	0x3cc29b22	0.023755614
104	0xbd19083c	-0.03736137
105	0xbe01b3b6	-0.1266621
106	0x3d92c809	0.0716706
107	0xbe6332a5	-0.22187288
108	0x3d048887	0.032356765
109	0xbdb8d0d2	-0.09024204
110	0xbddd6270	-0.10809791
111	0xbd08aba0	-0.0333668
112	0xbdc4ed91	-0.09615625
113	0xbddb6b71	-0.10713852
114	0x3dc20e3a	0.0947537
115	0xbda58d02	-0.08083536
116	0x3d7ddf6e	0.061980657
117	0x3c49a4b8	0.012307338
118	0xbd45c299	-0.048281286
119	0xbe3d0e83	-0.18462567
120	0x3d94ca56	0.07265155
121	0xbe584673	-0.21120624
122	0x3de46245	0.11151556
123	0xbe37507b	-0.17901795
124	0xbc0463df	-0.008080452
125	0x3e47a4b9	0.1949643
126	0x3c87dd34	0.01658497
127	0x3e33b596	0.17549738
128	0x3daafc40	0.08348894
129	0x3e1ca4f2	0.15297297
130	0x3e2516a3	0.16121916
131	0x3d0d2a4b	0.03446416
132	0xbe194e0a	-0.14971176
133	0x3c1a6846	0.009424275
134	0x3e1f4e01	0.155571
135	0x3dbe3cfa	0.09288974
136	0x3941d49e	0.0001848512
137	0xbe01df03	-0.12682728
138	0x3e07d8c3	0.13266282
139	0xbd9f8537	-0.077890806
140	0xbdd0c8ff	-0.10194587
141	0x3e0f42f2	0.13990381
142	0xbdc1de36	-0.094662115
143	0x3d43547c	0.047687992
144	0x3d889cd0	0.066705346
145	0x3a8e2500	0.0010844767
146	0xbe755f0c	-0.23962039
147	0x3e34a714	0.1764186
148	0xbe44afff	-0.19207762
149	0xbd8cd998	-0.0687744
150	0x398b25ea	0.00026540394
151	0x3dfa7f49	0.12231309
152	0xbd422b8b	-0.047404807
153	0xb8d2519a	-0.0001002878
154	0xbbcfe45d	-0.0063443617
155	0x3cd8bdc0	0.026457667
156	0xbd8abb9e	-0.067740664
157	0xbe3eb19d	-0.18622442
158	0xbe8d2c83	-0.27573022
159	0x3e1a1feb	0.15051238
160	0x3e118532	0.14210966
161	0xbe35127f	-0.17682837
162	0x3e447262	0.19184259
163	0x3d175782	0.03694869
164	0x3d489864	0.048973456
165	0xbd88b771	-0.06675614
166	0xbd8f8298	-0.07007331
167	0x3ce4806f	0.027893273
168	0xbd89091f	-0.06691193
169	0x3e507eb9	0.20360841
170	0xbdb93f11	-0.09045232
171	0xbcba0c00	-0.0227108
172	0xbb022e00	-0.0019863844
173	0x3e5769d1	0.2103646
174	0x3dae4b63	0.085104726
175	0x3dab2f45	0.08358625
176	0xbc7de598	-0.015496634
177	0xbcb8a63a	-0.0225402
178	0x3e53422f	0.20630716
179	0xbd7df07f	-0.061996933
180	0x3d9e0cb6	0.07717268
181	0xbe55861c	-0.2085194
182	0xbe4e941d	-0.20173688
183	0xbe2450e3	-0.16046481
184	0xba9ec61b	-0.0012113483
185	0xbe3e0985	-0.18558319
186	0x3c0c758d	0.008572948
187	0x3bda49c0	0.0066616237
188	0x3e123393	0.14277487
189	0xbe34277d	-0.17593189
190	0x3e228da5	0.15874346
191	0x3d9b4a5e	0.07582544
192	0x3d52f00c	0.051498458
193	0xbd4e42a1	-0.05035651
194	0x3d882aa9	0.06648762
195	0x3dfd5792	0.12370218
196	0x3daa671f	0.0832045
197	0x3d0f27e5	0.034950156
198	0xbe258cf0	-0.16167045
199	0xbe312a61	-0.17301323
200	0xbbc542c4	-0.006019922
201	0xbe5d7258	-0.2162565
202	0xbca22470	-0.019792765
203	0xbe163e04	-0.14672095
204	0xbdab3b6b	-0.083609425
205	0x3de02262	0.10944058
206	0x3bf5f426	0.0075059114
207	0x3e3fd713	0.18734388
208	0x3d5d75f2	0.05406756
209	0xbdc34f86	-0.09536652
210	0xbd4bd9a0	-0.04976809
211	0x3d8c5961	0.06852985
212	0xbcda7048	-0.026664868
213	0xbce5c33a	-0.028047193
214	0xbd9ce711	-0.0766126
215	0xbe136b74	-0.14396459
216	0xbe094102	-0.13403705
217	0xbdbdeb91	-0.09273446
218	0xbb324a2f	-0.0027204861
219	0x3b578783	0.0032887168
220	0x3c0ca126	0.008583343
221	0xbe5770e7	-0.21039163
222	0x3e562bf3	0.20915203
223	0xbd09dddc	-0.033658847
224	0xbdf5dde1	-0.12005211
225	0x3e029aad	0.12754317
226	0xbe6dd3a2	-0.23225263
227	0x3e526f99	0.20550384
228	0x3e8216fd	0.25408164
229	0x3e0e784a	0.13913074
230	0x3e237038	0.15960777
231	0xbdff6f28	-0.12472373
232	0xbe4caa63	-0.19986872
233	0x3dd910fe	0.10598944
234	0x3e3ab9e5	0.18234976
235	0xbe429ee5	-0.19005926
236	0xbe3baf7a	-0.18328658
237	0xbda0ad3e	-0.07845543
238	0x3e407fb2	0.18798712
239	0xbe8b7757	-0.27239487
240	0x3e0dfe8f	0.13866638
241	0xbd2145c8	-0.03937319
242	0x3ded666e	0.115918025
243	0xbd81ef98	-0.06344527
244	0x3da9d79e	0.08293079
245	0xbe720c34	-0.23637468
246	0xbdf13cd8	-0.11779183
247	0xbe23750e	-0.15962622
248	0x3cc49b90	0.02399996
249	0xbd706be9	-0.05869666
250	0xbdc5ab7c	-0.09651849
251	0x3da8b609	0.082378455
252	0xbc9c4b78	-0.019078955
253	0x3e14ed87	0.14543734
254	0x3da97327	0.08273917
255	0x3d1243fc	0.035709366

arith.constant8 f4 [128, 128]
0	0xbd9ac2c7	-0.07556682
1	0xbc3b30a0	-0.011425167
2	0xbce2a741	-0.027667644
3	0xbda28392	-0.07935251
4	0x3ccaac4f	0.024740366
5	0x3cffeed0	0.031241804
6	0xbd577a2a	-0.05260674
7	0x3df48b72	0.119406596
8	0xbd237110	-0.039902747
9	0x3de8f742	0.11375286
10	0xbce7ae9f	-0.028281508
11	0x3cd12a50	0.025532871
12	0xbd12cfbf	-0.035842653
13	0xbcd9ada6	-0.02657206
14	0x3d8c49cb	0.068500124
15	0xbdc941f1	-0.098270305
16	0xbdaa3176	-0.08310215
17	0xbc0c09b0	-0.008547232
18	0xbd4ce105	-0.050019283
19	0x3d34d7a0	0.04415095
20	0xbe13e304	-0.14442068
21	0xbe14ce36	-0.14531788
22	0xbd613526	-0.054982327
23	0xbce77ce4	-0.028257795
24	0x3d12e6fd	0.03586482
25	0x3dfa6e3e	0.12228058
26	0xbd3ed9f2	-0.046594568
27	0x3d96d9d6	0.07365768
28	0xbdea7984	-0.114489585
29	0x3de52522	0.11188723
30	0xbc4c340e	-0.012463583
31	0x3c87d01b	0.016578725
32	0x3c9c6400	0.019090652
33	0x3dcfefc1	0.10153151
34	0x3d8cff04	0.06884578
35	0x3da8983d	0.08232162
36	0x3d5221da	0.051301815
37	0x3d7c7ac6	0.061640523
38	0x3df2da0a	0.11857994
39	0x3d8397aa	0.06425412
40	0x3d93997c	0.07207009
41	0x3d6361a9	0.055513058
42	0x3e0b6949	0.13614382
43	0xbe190219	-0.14942206
44	0x3df0784e	0.11741696
45	0xbd278ad4	-0.04090388
46	0xbdc5c00e	-0.09655772
47	0xbd8ba4d8	-0.06818551
48	0xbd555e59	-0.05209193
49	0xba98c600	-0.0011655688
50	0xbdff0a12	-0.12453093
51	0xbe05fb53	-0.13084154
52	0xbc24b139	-0.010052019
53	0xbcceafc4	-0.025230296
54	0xbd9ae7a7	-0.075637154
55	0xbe051f86	-0.13000306
56	0xbe121c80	-0.14268684
57	0xbe02162a	-0.12703767
58	0x3d760857	0.060066547
59	0x3d1aa5cc	0.037755772
60	0xbdf5bdee	-0.11999117
61	0xbd287996	-0.04113158
62	0x3dd49602	0.10380174
63	0x3c9e13d0	0.019296557
64	0x3d24146c	0.04005854
65	0x3dc91968	0.09819299
66	0xbd0566fa	-0.03256891
67	0xbd5e122a	-0.05421654
68	0xbe09b508	-0.13447964
69	0x3d8e3972	0.069445506
70	0x3de3b236	0.111179754
71	0x3dc853fa	0.09781642
72	0x3dd123e0	0.10211921
73	0xbd3cd0c0	-0.046097517
74	0xbc6e934b	-0.014561485
75	0x3d6911ac	0.05690162
76	0xbe2527f0	-0.16128516
77	0xbcbf1d4a	-0.023329396
78	0x3cfee4e2	0.031115
79	0xbdb57680	-0.08860493
80	0xbe09a5e6	-0.13442191
81	0x3d8c5e30	0.06853902
82	0xbd8f6082	-0.07000829
83	0xbd1c8efa	-0.03822229
84	0x3df2b1a5	0.11850289
85	0xbdd0e688	-0.1020022
86	0xbe0a3e44	-0.13500315
87	0xbdd72f58	-0.10507077
88	0x3d2b8778	0.04187724
89	0xbdadc47c	-0.08484742
90	0xbcd797e1	-0.026317539
91	0x3d8e04ba	0.06934495
92	0x3d9d02b8	0.07666534
93	0x3d56b16c	0.052415296
94	0x3dcf54d1	0.10123599
95	0xbd696d37	-0.05698892
96	0xbe061fe0	-0.13098097
97	0x3dc7701d	0.09738181
98	0xbdf1c6a2	-0.11805464
99	0x3dfead70	0.12435424
100	0xbd451ff7	-0.048126187
101	0x3de528e2	0.111894384
102	0xbe025758	-0.12728631
103	0x3e06949d	0.13142629
104	0xbe05f1bb	-0.13080494
105	0x3e10bbe6	0.14134178
106	0xbde5c1e7	-0.112186246
107	0xbd1ed7a2	-0.038779862
108	0xbda36c19	-0.07979602
109	0xbdeff1e6	-0.1171606
110	0xbe0323e3	-0.12806658
111	0x3e05ec12	0.13078335
112	0xbd993023	-0.074798845
113	0x3dc64ee2	0.096830145
114	0xbdb93a69	-0.09044344
115	0xbe190e89	-0.14946951
116	0x3e0f8f25	0.14019449
117	0x3dbc7186	0.092013404
118	0x3c6cea70	0.014460191
119	0x3e0d70a3	0.13812499
120	0x3d3a2ec0	0.04545474
121	0x3d37da81	0.044886116
122	0x3de0c0ca	0.109742716
123	0xbcf43718	-0.029811427
124	0x3c21a8a0	0.0098668635
125	0x3dfd72da	0.12375422
126	0x3e02b5f7	0.12764727
127	0xbd8a4a80	-0.06752491
128	0xbde86d3a	-0.11348958
129	0xbd38b297	-0.04509219
130	0x3da0bd84	0.07848647
131	0xbc65b954	-0.014021236
132	0xbddc1799	-0.107466884
133	0xbd905c5c	-0.07048866
134	0xbe0eb382	-0.13935664
135	0xbd94fa57	-0.07274311
136	0x3d5135c6	0.051076673
137	0x3db7aa0a	0.08967979
138	0xbce86775	-0.028369645
139	0xbdf040f3	-0.11731138
140	0xbc9c7cc5	-0.019102463
141	0xbdffa42d	-0.12482486
142	0x3e326b07	0.1742364
143	0xbd88cd71	-0.0667981
144	0x3c8af135	0.01696072
145	0xbd8214a9	-0.06351597
146	0xbdbff6d2	-0.09373249
147	0x3dffc9e3	0.12489679
148	0xbd8d2183	-0.068911575
149	0xbdec7d89	-0.115473814
150	0xbbde4860	-0.00678353
151	0x3df84602	0.12122728
152	0xbba343f4	-0.004982466
153	0xbe04d21a	-0.12970772
154	0xbc5d2f17	-0.013499997
155	0xbda0b1f5	-0.078464426
156	0x3e15d102	0.14630511
157	0xbdcd6b26	-0.100302026
158	0x3ba55f6f	0.005046777
159	0x3d485ff7	0.048919644
160	0x3c417330	0.011807248
161	0xbc8f5e38	-0.017500982
162	0x3dae42e1	0.0850885
163	0xbc98ede4	-0.018668123
164	0x3d892921	0.06697298
165	0x3b426d7c	0.0029667309
166	0x3dc120b2	0.09430064
167	0xbc8cc051	-0.017181547
168	0xbdccfc23	-0.10009029
169	0xbde2a1cc	-0.110660166
170	0xbdecefec	-0.11569199
171	0xbde38482	-0.11109258
172	0xbd34bff6	-0.04412838
173	0x3dbd736a	0.09250529
174	0xbdebbff5	-0.11511222
175	0xbde0c1ae	-0.109744415
176	0x3db0bead	0.086301185
177	0xbddddacf	-0.1083275
178	0x3dbb982a	0.09159882
179	0xbde6d525	-0.11271123
180	0xbd2b1405	-0.04176714
181	0xbddbe3d8	-0.10736817
182	0x3e00d56f	0.12581418
183	0xbd6a024a	-0.05713109
184	0xbba7416b	-0.005104234
185	0xbdc03ccf	-0.09386598
186	0x3e2eda98	0.17075574
187	0xbde3c4a2	-0.11121489
188	0xbc06d42a	-0.008229295
189	0xbe046b72	-0.12931612
190	0x3def37cb	0.116805635
191	0xbb8f8de2	-0.0043809274
192	0x3d872e12	0.06600584
193	0xbcc3f60a	-0.023921032
194	0xbcba7bbe	-0.022764083
195	0x3d977922	0.07396151
196	0xbdbe88da	-0.09303446
197	0xbdb95e75	-0.090512194
198	0xbe169b90	-0.1470778
199	0x3d08038b	0.033206504
200	0xbdf454ef	-0.11930262
201	0xbe33951b	-0.17537348
202	0x3e173c67	0.14769135
203	0x3ce868b8	0.028370246
204	0xbcb288a4	-0.021793671
205	0x3dcbf3b6	0.099585935
206	0x3db59587	0.08866411
207	0x3de603bd	0.11231182
208	0xbd7c4b68	-0.06159535
209	0xbcd8b5b8	-0.026453838
210	0xbdc94f9f	-0.0982964
211	0x3d6e6969	0.058205996
212	0xbe00f1ba	-0.12592211
213	0x3dce80af	0.10083138
214	0x3da9627f	0.0827074
215	0x3d275f2c	0.040862247
216	0xbdf869ee	-0.121295795
217	0x3e3836cc	0.17989653
218	0xbde86734	-0.113478094
219	0xbda88129	-0.0822776
220	0xbd8b4479	-0.068001695
221	0x3d9600fc	0.073244065
222	0x3b17dcc3	0.0023172356
223	0xbcd8eefa	-0.02648114
224	0x3e0458c1	0.12924482
225	0x3e227fd9	0.15869083
226	0xbb0cbb5d	-0.0021473982
227	0x3d33cb6b	0.043895166
228	0xbe3a92f8	-0.18220127
229	0xbd1b4435	-0.037906844
230	0xbe079cea	-0.13243452
231	0x3d681caf	0.05666798
232	0x3e055d72	0.13023928
233	0xbe088cca	-0.13334957
234	0xbddf80e9	-0.109132595
235	0xbd0e8cba	-0.034802176
236	0x3d6e34d8	0.058155864
237	0xbccb719f	-0.024834452
238	0x3e2ab53d	0.166707
239	0xbd35336f	-0.044238504
240	0xbd851819	-0.06498737
241	0xbe05da06	-0.1307145
242	0x3e2111a7	0.1572939
243	0x3bd9568e	0.0066326326
244	0xbd3a3c03	-0.045467388
245	0x3cc341bf	0.023835061
246	0x3bccf2fc	0.006254552
247	0xbe021878	-0.12704647
248	0xbe0e5259	-0.138986
249	0x3e1cf755	0.15328725
250	0x3dc9f0bf	0.09860372
251	0x3d7a69b8	0.061135978
252	0x3ddabb1a	0.10680218
253	0x3c91e205	0.01780797
254	0xbcd1179e	-0.025523957
255	0xbc8b1012	-0.016975436

sequential_1_1/conv2d_3_1/Relu;sequential_1_1/conv2d_3_1/BiasAdd;sequential_1_1/conv2d_3_1/convolution; f4 [32, 3, 3, 3]
0	0x3a0a42e2	0.00052742485
1	0x3a1b83b7	0.0005932408
2	0x39d076cd	0.00039761365
3	0x39bdbe7d	0.00036190814
4	0x3a0148eb	0.0004931825
5	0x39aa99d6	0.00032539543
6	0xba06b1d5	-0.00051381934
7	0x3917f4f3	0.00014491733
8	0xb9cacb4f	-0.0003867992
9	0x39d21f52	0.00040077657
10	0xb98f9dc3	-0.00027392627
11	0x3a19333f	0.0005844123
12	0xb857f314	-5.148638e-05
13	0xb77e72f7	-1.5166347e-05
14	0x39816e82	0.00024687132
15	0xb9eb22cf	-0.00044848627
16	0xb942608c	-0.00018537248
17	0xba25fab4	-0.0006331608
18	0xb9889fcb	-0.00026058996
19	0xb9b7e099	-0.00035071818
20	0xb9b01a9f	-0.0003358917
21	0x39cbb140	0.0003885124
22	0xb9df9436	-0.000426443
23	0xb9a07da9	-0.00030611202
24	0x392006da	0.00015261341
25	0x39dfc2e4	0.0004267908
26	0x3873b8b6	5.810774e-05
27	0x39b0f4b0	0.00033751642
28	0x39d28a45	0.0004015734
29	0x38ed60ac	0.00011319047
30	0xb9a86ff4	-0.0003212687
31	0x3915f1f3	0.0001429988
32	0x3a263513	0.0006340306
33	0xb857d51c	-5.1458468e-05
34	0xb816e708	-3.597795e-05
35	0x397e51ba	0.00024253773
36	0x397ac777	0.00023916164
37	0xb8c305cb	-9.2994036e-05
38	0xb8c72151	-9.495265e-05
39	0xb903224c	-0.0001250591
40	0x39878bd8	0.00025853398
41	0xb99b42e6	-0.00029613747
42	0xb9395a38	-0.00017676584
43	0x38a2671a	7.743966e-05
44	0xb90b7bcb	-0.0001330219
45	0xb9b70883	-0.00034910822
46	0x3a22460f	0.0006190249
47	0x3a1e888b	0.0006047568
48	0xb9a51830	-0.00031489274
49	0x38f91de8	0.00011878816
50	0xb9c06570	-0.0003669667
51	0xb923d3d8	-0.0001562381
52	0x39b0bb06	0.0003370868
53	0x3a16fed5	0.0005760019
54	0xb9ba98ea	-0.00035590614
55	0x394ee1eb	0.00019729852
56	0xb8e171c7	-0.00010750029
57	0x396f4dab	0.0002282175
58	0xba025b0d	-0.0004972674
59	0xb9d90061	-0.00041389748
60	0x3946fd96	0.0001897722
61	0xba070e4e	-0.0005151973
62	0xb9fe6aef	-0.00048526327
63	0xb96cf71c	-0.0002259877
64	0xb9cb5702	-0.00038784003
65	0xb96aae3d	-0.00022380888
66	0x39683485	0.00022144809
67	0xb89a36fc	-7.353534e-05
68	0xb8f445ef	-0.00011647853
69	0xb9fbafcf	-0.00048005438
70	0xb9f7231a	-0.00047137664
71	0xb9b18227	-0.00033857042
72	0xb9bdb46d	-0.00036183317
73	0x399d3abf	0.00029989143
74	0x39888c7f	0.0002604462
75	0xb90e242f	-0.00013555655
76	0xb93de182	-0.00018108453
77	0x39cc6ed6	0.0003899249
78	0xb94f503d	-0.0001977095
79	0xb5cfd9db	-1.5486106e-06
80	0x38e8a869	0.00011093991
81	0x39d094cf	0.00039783723
82	0x39fd8461	0.0004835455
83	0xb917839c	-0.0001444951
84	0xb9e9482a	-0.0004449499
85	0xb9c31063	-0.00037205507
86	0xb9d685d9	-0.00040916985
87	0xb9a713b4	-0.00031867402
88	0x396eb2ce	0.00022764059
89	0x39cdd94a	0.0003926254
90	0x398e7048	0.00027168007
91	0x3a0fe3fc	0.00054889894
92	0xb9baeaf4	-0.00035651738
93	0x39278e2e	0.00015979327
94	0x387bf345	6.0069626e-05
95	0xb9cea029	-0.0003941071
96	0x394ff5ae	0.00019832581
97	0x39c92833	0.00038367658
98	0xba030bb6	-0.00049989985
99	0xb92005c6	-0.0001526094
100	0xb8c9a2b7	-9.614735e-05
101	0x39b0cc94	0.00033721759
102	0x397158e3	0.00023016664
103	0x39f3e869	0.0004652173
104	0xb9c71a85	-0.00037975996
105	0xb953ce5c	-0.00020199403
106	0x39f6ebc3	0.00047096433
107	0x3941a9d5	0.00018469182
108	0xba06d9fc	-0.00051441765
109	0xb9646235	-0.0002178036
110	0xb9d73e91	-0.0004105461
111	0xb9b4f2b8	-0.00034513115
112	0x3623b451	2.439385e-06
113	0xb9ab0ead	-0.00032626596
114	0xba003a8b	-0.0004891536
115	0xba12a991	-0.00055947254
116	0x382a4e79	4.060424e-05
117	0xb911304c	-0.0001384627
118	0xb9a97952	-0.00032324583
119	0xb96a9514	-0.00022371515
120	0x3939f6fd	0.00017734985
121	0x39931002	0.00028049952
122	0x39ce9582	0.00039402774
123	0x379f3d0e	1.8982708e-05
124	0x399d1f1d	0.00029968555
125	0x39826bdf	0.00024875902
126	0x399f0e78	0.00030337623
127	0xb9eed8af	-0.0004555634
128	0xb9fc62df	-0.0004813885
129	0xb9031110	-0.0001249949
130	0xb967c5fd	-0.00022103633
131	0xb9654240	-0.00021863822
132	0x3949f33e	0.00019259469
133	0xb8607ede	-5.3523916e-05
134	0xb9d1e567	-0.00040034504
135	0xb8687703	-5.542395e-05
136	0x37deed71	2.657503e-05
137	0xb9f3f6d0	-0.0004653246
138	0x39f69890	0.00047034444
139	0x399e2ec3	0.0003017095
140	0x39954c50	0.00028476352
141	0xb8551a40	-5.0807605e-05
142	0xb9b3e0ba	-0.00034308975
143	0xb9db6ba0	-0.00041851122
144	0x39ccd67d	0.00039069718
145	0xb723f247	-9.771967e-06
146	0xba05d561	-0.00051053433
147	0x3903b07d	0.0001255888
148	0x39afd767	0.00033539088
149	0xb9d0029d	-0.000396748
150	0x39e4338b	0.0004352595
151	0xb9d84a20	-0.00041253958
152	0xb9f11210	-0.0004598056
153	0x39b537d4	0.00034564605
154	0xb9fada55	-0.00047846386
155	0x3998a383	0.00029113525
156	0xb9ddaf64	-0.0004228308
157	0x39de30e8	0.00042379578
158	0x38bb8e69	8.943381e-05
159	0x3a0fd8a5	0.00054872996
160	0xb9bae33b	-0.00035645984
161	0xb9451f9c	-0.0001879916
162	0xb9b5f41e	-0.00034704892
163	0xb9ad516e	-0.000330578
164	0x397dbe18	0.00024198776
165	0x39036d6d	0.00012533898
166	0xb99b515e	-0.00029624527
167	0xb9ee3794	-0.00045436306
168	0x3a211829	0.0006145263
169	0x39eb4348	0.0004487282
170	0x3a005158	0.00048949337
171	0x39bab685	0.00035612672
172	0x39eed5a3	0.0004555407
173	0xb9b28721	-0.00034051485
174	0x3a1a0997	0.0005876063
175	0xb90f394e	-0.0001365889
176	0xb990104a	-0.00027477957
177	0xb9c95b40	-0.00038405694
178	0x38ad612f	8.267385e-05
179	0xb9fb1b71	-0.00047894896
180	0x380a6426	3.2995034e-05
181	0xba077928	-0.0005167895
182	0xb9626167	-0.00021589325
183	0xb9ee7615	-0.00045482875
184	0xb8d2d763	-0.00010053699
185	0xba106008	-0.0005507474
186	0x3a193a00	0.00058451295
187	0x39f871ec	0.00047387125
188	0xb96700b2	-0.00022030136
189	0x3a02239a	0.00049644115
190	0xb9f98d3f	-0.00047598217
191	0x3a1de53a	0.0006023232
192	0x394ac94b	0.00019339209
193	0xb9fa8643	-0.0004778375
194	0x3a25ef99	0.00063299533
195	0x38837da5	6.26997e-05
196	0xba17bae0	-0.00057880394
197	0xb697a883	-4.519768e-06
198	0xb69020cf	-4.295354e-06
199	0xb9d14f7e	-0.00039922813
200	0xb9b1dc31	-0.00033924126
201	0xb938c43f	-0.00017620715
202	0x39896179	0.000262033
203	0x3980adf7	0.00024543676
204	0x39e5ef76	0.00043856696
205	0xb90e6e98	-0.00013583375
206	0xb8a1c8ef	-7.714505e-05
207	0xb989c149	-0.00026274685
208	0xb8762c56	-5.869226e-05
209	0x39f89d6a	0.0004741953
210	0x39da2d4b	0.00041613946
211	0xb9483e62	-0.00019096726
212	0xb86d5339	-5.658271e-05
213	0xb9cafacb	-0.00038715298
214	0xb917769c	-0.00014444668
215	0xb97664b9	-0.0002349791
216	0x39204fb2	0.00015288478
217	0xb853b6a3	-5.0476414e-05
218	0xb99c2816	-0.00029784505
219	0xb88568f1	-6.361481e-05
220	0x39231483	0.00015552533
221	0x388ed815	6.811336e-05
222	0xb9976d34	-0.00028882327
223	0x393b0521	0.0001783562
224	0x396494ec	0.00021799252
225	0xb89cc740	-7.475773e-05
226	0x390e8c48	0.00013594434
227	0x39a17954	0.0003079871
228	0x3a105e7a	0.0005507242
229	0xb9c15e6c	-0.00036882178
230	0xb9c22ae6	-0.00037034525
231	0x393895e0	0.0001760344
232	0xb8c6a262	-9.471622e-05
233	0xba2555e4	-0.0006307049
234	0xb92a9c0c	-0.00016270595
235	0xb9455f39	-0.00018822857
236	0xba13c0b6	-0.0005636321
237	0x3a04fcd4	0.0005073075
238	0xb95d7a4f	-0.00021121766
239	0xb997ce4f	-0.00028954676
240	0x39a36497	0.00031164728
241	0x38822224	6.205242e-05
242	0x39c4b5a5	0.0003751937
243	0x39aa4b01	0.0003248081
244	0x370ef23b	8.520258e-06
245	0x39e26fce	0.0004318938
246	0x3a0bc889	0.0005332311
247	0xba01d597	-0.0004952787
248	0x38f68f93	0.00011756937
249	0xb9fa83d2	-0.0004778193
250	0xb8a55fbc	-7.885645e-05
251	0xb93add84	-0.00017820863
252	0xb9ded958	-0.00042505073
253	0x38321a95	4.2463264e-05
254	0xb7311b7a	-1.05564195e-05
255	0x3a141c73	0.0005649991
